defence/denoising_autoencoder.pth (torch, 115227 bytes, 8 tensors)

encoder.0.weight f4 [32, 3, 3, 3]
0	0xbd72c304	-0.059268013
1	0x3e9b52ef	0.3033671
2	0xbd9b67df	-0.07588171
3	0xbd8c58ea	-0.068528965
4	0xbd623c08	-0.05523303
5	0xbcd48c03	-0.025945669
6	0xbc2e9e75	-0.010657896
7	0xbe0c7999	-0.13718261
8	0xbc7f5f62	-0.015586706
9	0x3d84c6b6	0.064832136
10	0x3f28ddd2	0.6596347
11	0x3e0f0131	0.13965298
12	0x3cf4ae74	0.029868342
13	0x3e3039d5	0.17209561
14	0x3d5a9f25	0.05337443
15	0x3cadf098	0.021232888
16	0xbdcd07a1	-0.10011221
17	0xbc33c6b9	-0.010972672
18	0xbc1acee1	-0.009448738
19	0x3f3cfeb0	0.7382612
20	0x3dd1c5dd	0.102428176
21	0x3d03f811	0.032218996
22	0x3e887412	0.26651055
23	0x3c973da5	0.018462012
24	0xbd0bc2db	-0.034121376
25	0xbe24a481	-0.16078378
26	0xbe0ce0e2	-0.13757661
27	0xbe552ce7	-0.2081791
28	0xbea218f1	-0.31659654
29	0x3d308549	0.04309586
30	0xbea54b80	-0.32284164
31	0xbf0d204e	-0.5512742
32	0xbe63be98	-0.22240674
33	0x3e4df5b4	0.2011326
34	0xbbfe22f4	-0.0077556316
35	0x3e0b0e24	0.13579613
36	0x3dc2e0f8	0.09515566
37	0xbb33891e	-0.002739496
38	0x3e1b57eb	0.15170257
39	0x3cde25ae	0.027117576
40	0xbe3494c8	-0.1763488
41	0x3cf12177	0.029434903
42	0x3dc1f1b4	0.09469929
43	0x3df194c4	0.11795953
44	0x3e0d6e12	0.1381152
45	0x3e3dd55a	0.18538418
46	0xbc3507fb	-0.011049266
47	0x3e30ba63	0.17258601
48	0xbd8e2cea	-0.069421604
49	0xbdddb0c7	-0.10824733
50	0x3c29b9fb	0.010359283
51	0x3db970bb	0.09054705
52	0x3c160a1b	0.009157683
53	0xbc132f15	-0.008983393
54	0x3d871ea7	0.06597643
55	0xbce765a2	-0.028246704
56	0x3e2d5216	0.16925845
57	0x3e828936	0.2549531
58	0xbdb595e8	-0.08866483
59	0x3e161c02	0.14659122
60	0x3e152df6	0.14568314
61	0x3d0ac812	0.03388221
62	0x3e30bca0	0.17259455
63	0xbd961c22	-0.07329585
64	0xbecca1cd	-0.39967194
65	0xbe34f5e1	-0.1767192
66	0xbdab0ac8	-0.08351666
67	0xbee4a0f3	-0.44654045
68	0xbe4a76d1	-0.19771887
69	0xbe16ab96	-0.14713892
70	0xbea28a4f	-0.31746146
71	0xbd918805	-0.07106022
72	0x3e5f8851	0.21829344
73	0xbd4e5489	-0.050373588
74	0x3e276c42	0.16349891
75	0x3e8ce528	0.27518582
76	0xbd5f996c	-0.054589674
77	0x3e097446	0.13423261
78	0x3db0adbb	0.086268865
79	0xbe005c04	-0.12535101
80	0x3d8bc804	0.06825259
81	0xbe2d433e	-0.16920182
82	0x3e7430df	0.23846768
83	0xbe5512e4	-0.20807987
84	0x3d4ce4d0	0.0500229
85	0x3f767d8d	0.96285325
86	0x3ecaf42e	0.3963942
87	0xbe9c39e5	-0.3051292
88	0x3e2888e5	0.16458471
89	0xbe5fbe1e	-0.21849868
90	0xbdbd8530	-0.09253919
91	0x3e03a1ba	0.12854663
92	0x3cdc62fb	0.026902666
93	0xbd76f6af	-0.06029385
94	0x3f137745	0.57603866
95	0x3de42806	0.11140446
96	0xbe0f3f39	-0.13988961
97	0x3d508a44	0.05091311
98	0xbd055976	-0.03255602
99	0x3d3b7238	0.045763224
100	0xbda7f241	-0.08200503
101	0x3dba5ff4	0.09100333
102	0xbe11f9a9	-0.14255394
103	0x3de5b32b	0.11215814
104	0xbdb85364	-0.090002805
105	0x3da426a3	0.08015182
106	0xbe59ec46	-0.21281537
107	0x3b649721	0.003488012
108	0x3e602ab1	0.21891285
109	0x3f0ec091	0.55762583
110	0x3d48ac34	0.04899235
111	0x3e84eecc	0.25963438
112	0x3eeaa729	0.45830658
113	0xbc506e45	-0.012721603
114	0xbdb7e6b8	-0.08979553
115	0x3ce43934	0.027859308
116	0xbd14990a	-0.036278762
117	0xbe4044e3	-0.18776278
118	0x3d8709d0	0.065936685
119	0xbebde8d5	-0.370917
120	0xbdda72cf	-0.10666429
121	0x3e8ff53c	0.28116786
122	0xbe94e3c1	-0.29080012
123	0xbdf69cd3	-0.120416306
124	0x3dd1abc3	0.10237839
125	0xbe0138e1	-0.12619354
126	0x3da690c2	0.08133079
127	0x3e1ce1b6	0.15320477
128	0xbe68ae06	-0.22722635
129	0xbcae71cc	-0.021294497
130	0x3e894ace	0.26814884
131	0xbe2744a8	-0.16334784
132	0x3cdf37c4	0.02724827
133	0x3e4f3c7a	0.20237914
134	0x3a1f96f4	0.00060878624
135	0xbda6fd90	-0.08153832
136	0xbe97e9b0	-0.29670477
137	0xbd5a6de5	-0.05332746
138	0x3e37b4ba	0.17940035
139	0x3db706aa	0.08936818
140	0x3e5ac949	0.21365847
141	0xbd863a81	-0.065541275
142	0xbcc345b9	-0.023836957
143	0xbe1f79c2	-0.1557379
144	0x3c2dea3e	0.01061493
145	0xbe79c71b	-0.24392359
146	0xbe02278b	-0.12710397
147	0x3e2ff7dd	0.17184396
148	0x3d9f73a5	0.07785729
149	0x3e957db2	0.2919746
150	0x3d73a25b	0.059481006
151	0xbd7574fe	-0.059926026
152	0xbcfb570a	-0.030681152
153	0xbcfe38e3	-0.031032985
154	0xbeaad720	-0.33367252
155	0xbe0713ec	-0.13191193
156	0x3dd7bd30	0.105341315
157	0x3d3bc56f	0.045842584
158	0x3e9920ed	0.29907933
159	0x3dac9fc9	0.08428914
160	0xbdf6c098	-0.12048453
161	0x3d4f0863	0.050545108
162	0xbe5e6e50	-0.21721768
163	0xbde91703	-0.11381342
164	0xbe73d16a	-0.23810354
165	0x3e8afb5b	0.27144894
166	0x3f19f229	0.6013513
167	0x3dce7e10	0.10082638
168	0xbd3d4284	-0.046206012
169	0x3ec90070	0.39258146
170	0xbd4764f5	-0.048680265
171	0xbdb97afb	-0.0905666
172	0xbd63a39b	-0.05557595
173	0xbdd83ae3	-0.10558107
174	0x3e92cbac	0.28671014
175	0x3edea20b	0.43483004
176	0x3de59961	0.11210895
177	0x3e7c7dd8	0.2465738
178	0x3e549998	0.20761716
179	0x3d9c199f	0.07622074
180	0xbc54a686	-0.012979155
181	0xbd3e0d9d	-0.0463997
182	0x3dd27564	0.10276297
183	0x3da3195d	0.07963822
184	0x3e570f8d	0.21002026
185	0xbe000a19	-0.12503852
186	0x3e21d1ea	0.15802732
187	0x3d349589	0.04408792
188	0x3dae7793	0.08518901
189	0x3e8fcdcd	0.280867
190	0x3e6acd02	0.22929767
191	0x3c09aa83	0.00840247
192	0x3e97be50	0.29637384
193	0x3e665dcf	0.22496723
194	0xbc2e9416	-0.010655424
195	0xbd9afe6d	-0.07568059
196	0x3c862397	0.016374392
197	0xbd031204	-0.031999603
198	0xbdea5874	-0.11442652
199	0xbd6e691e	-0.058205716
200	0xbd837e7e	-0.06420611
201	0xbddcda59	-0.10783834
202	0xbe3d95ee	-0.18514225
203	0xbd71151f	-0.058858033
204	0xbe080838	-0.13284385
205	0xbe308bcd	-0.1724083
206	0xbdb5c762	-0.0887592
207	0x3dc08250	0.09399855
208	0x3dd9a885	0.10627846
209	0x3d442e4f	0.047895726
210	0x3d8278eb	0.063707195
211	0xbd588098	-0.05285701
212	0x3e079685	0.13241012
213	0x3d06da27	0.03292289
214	0xbc12b38c	-0.00895394
215	0x3d738749	0.05945519
216	0x3cb318ea	0.021862466
217	0x3cb8a8cb	0.022541424
218	0xbdf5a0c7	-0.119935565
219	0x3d9d27d7	0.076736145
220	0x3d9e0b3b	0.07716986
221	0x3d1f0012	0.038818426
222	0xbd8db38a	-0.0691901
223	0xbcc5ff47	-0.024169577
224	0xbe93c910	-0.28864336
225	0x3cd6f596	0.026240151
226	0xbc9a3fa8	-0.018829182
227	0xbde0433a	-0.109503224
228	0xbc9c1d5d	-0.01905697
229	0xbe0fff88	-0.14062321
230	0xbe93eda0	-0.2889223
231	0xbdeea4b8	-0.11652511
232	0xbe94e9b8	-0.29084563
233	0xbeda5884	-0.42645657
234	0x3cba8970	0.022770613
235	0x3daabbd1	0.083366044
236	0x3db152b1	0.0865835
237	0x3d2f44a8	0.042790085
238	0xbe12b495	-0.14326699
239	0xbe05d440	-0.13069248
240	0xbccada7f	-0.02476239
241	0xbd8032d2	-0.06259693
242	0xbe6f11a1	-0.23346569
243	0x3d0307b0	0.031989753
244	0x3e0e1d32	0.13878325
245	0xbd22f48a	-0.039783992
246	0xbd1e0b9a	-0.038585283
247	0xbd22cfe6	-0.03974905
248	0x3a8ebcec	0.0010890043
249	0xbc36af00	-0.011150122
250	0x3d02d510	0.031941473
251	0x3d8bfa5c	0.06834862
252	0x3d92b2f5	0.071630396
253	0xbd2c96d2	-0.04213602
254	0x3e1051d3	0.14093713
255	0xbd064725	-0.032782692

encoder.0.bias f4 [32]
0	0x3ee6b22e	0.45057815
1	0x3f99bdfe	1.2011106
2	0x3f3d74ec	0.74006534
3	0x3f0994bf	0.53742594
4	0x3f67dee7	0.90574497
5	0x3f709d31	0.93989855
6	0x3e98fe4b	0.2988151
7	0x3f283c48	0.6571698
8	0x3e7df0a0	0.24798822
9	0x3d9b91ee	0.07596193
10	0x3f2f9294	0.68583035
11	0x3f6dc7df	0.92883104
12	0x3e9ac848	0.30230927
13	0x3f9b3c88	1.2127848
14	0x3e0d21bb	0.13782398
15	0x3efb15d5	0.49040094
16	0x3e8f76b7	0.2802026
17	0x3ef11314	0.47084868
18	0x3f99075b	1.195537
19	0x3de8815f	0.113528006
20	0x3fa45c82	1.2840731
21	0x3f2b21c2	0.66848385
22	0x3f479bcf	0.7797212
23	0x3fc2b4d9	1.521144
24	0x3f232734	0.63731694
25	0xbe0501e4	-0.12989002
26	0x3edfce03	0.43711862
27	0x3f40cfc0	0.75317
28	0x3fc5f85b	1.5466417
29	0x3e903573	0.2816578
30	0xbe29610e	-0.1654093
31	0x3fc39f3f	1.5282973

encoder.3.weight f4 [64, 32, 3, 3]
0	0xbbb1876a	-0.005417754
1	0xbd6aa1de	-0.057283275
2	0xbd645e59	-0.05575404
3	0x3cb34898	0.021885201
4	0xbc924edf	-0.017859874
5	0x3ca3ecc0	0.020010352
6	0xbc9cabd7	-0.019124908
7	0xbbf02ada	-0.007329327
8	0x3c98ec61	0.018667402
9	0xbd25b578	-0.040456265
10	0xbd5ce560	-0.053929687
11	0xbd400be1	-0.04688633
12	0x3d38f869	0.045158777
13	0xbd67defb	-0.056609135
14	0xbd400543	-0.046880018
15	0x3ca8988e	0.020580556
16	0xbceca0c7	-0.028885258
17	0x3d3bf9da	0.045892574
18	0xbbf123fc	-0.007359026
19	0xbc53d021	-0.01292804
20	0xbd6da962	-0.058022864
21	0x3cece590	0.028918058
22	0xbc7c6f0e	-0.015407337
23	0x3d0b87df	0.034065124
24	0xbd37dba1	-0.04488719
25	0xbc87b40f	-0.01656535
26	0xbcf751d7	-0.030190391
27	0x3c3f6e79	0.011684054
28	0x3cb10606	0.021609318
29	0xbcb26a2a	-0.021779139
30	0xbc3002b9	-0.010742837
31	0xbd37bd05	-0.044857997
32	0x3c89a29e	0.016801175
33	0xbcdbf327	-0.026849343
34	0xbca573c9	-0.020196812
35	0x3ad3c462	0.0016156549
36	0x3caad926	0.020855498
37	0xbcfc6a2d	-0.030812347
38	0x3ce66861	0.028125944
39	0xbcb24bf8	-0.02176474
40	0x3d61f3f8	0.055164307
41	0xbd4eb359	-0.050464008
42	0xbad08fd3	-0.0015912004
43	0xbc8cb49d	-0.017175967
44	0xbd3adf55	-0.045623142
45	0x3d3bf964	0.045892134
46	0xbd1c1876	-0.038109265
47	0x3d4ba3be	0.049716704
48	0x3cd26caf	0.02568659
49	0x3ce01b45	0.027356753
50	0xbd243461	-0.040089015
51	0x3ca41a6c	0.02003213
52	0x3d38091d	0.044930566
53	0xbd7df838	-0.062004298
54	0x3bdb825a	0.0066988887
55	0xbb8792b6	-0.0041373624
56	0xbd0be00a	-0.034149207
57	0xbcecab95	-0.02889041
58	0x3d378ba5	0.04481091
59	0x3d1ef60b	0.038808864
60	0xbd59e078	-0.053192586
61	0x3d07193d	0.032983053
62	0x3adacf5b	0.0016693877
63	0xbd414a79	-0.047190163
64	0x3cb1d4f0	0.021707982
65	0x3cbff682	0.023432974
66	0x3d45ff14	0.048338965
67	0xbd3bb384	-0.045825496
68	0x3c14ab12	0.0090739895
69	0x3d5341ec	0.05157654
70	0xba3e2db7	-0.0007254737
71	0xbd5f9395	-0.054584105
72	0xbd022013	-0.03176887
73	0x3d41dc92	0.047329493
74	0x3d53d931	0.0517208
75	0xbd5b7d6e	-0.053586416
76	0xbd30cc1b	-0.0431634
77	0xbbd607bb	-0.0065316833
78	0x3c201e47	0.009772844
79	0xbc15d2bf	-0.009144484
80	0x3d27a4a9	0.040928517
81	0xbca57825	-0.020198891
82	0xbce43dab	-0.027861437
83	0x3d20311a	0.039109327
84	0xbb116faa	-0.00221918
85	0x3d0426d2	0.032263584
86	0x3cb09800	0.021556854
87	0xbca2c1dd	-0.019867832
88	0xbc90c746	-0.017673146
89	0x3d281009	0.041030917
90	0xbd61bd84	-0.055112377
91	0x3c648a3b	0.013948972
92	0x3bb3e626	0.0054900823
93	0xbd141f67	-0.03616276
94	0x3ce273fa	0.027643193
95	0x3d072812	0.0329972
96	0x3c72593c	0.014791783
97	0xbcd6af2b	-0.026206573
98	0x3d3d8ed8	0.046278805
99	0xbca139f6	-0.019680958
100	0xbc18a107	-0.009315736
101	0x3ce8316c	0.028343879
102	0xbd7912c5	-0.060808916
103	0xbd6c9af4	-0.057764962
104	0x3bfcba00	0.0077126026
105	0x3d09f24e	0.033678345
106	0xbbc2a80f	-0.0059404443
107	0xbd41f9ee	-0.047357492
108	0xbc9eace5	-0.019369552
109	0xbd0c287a	-0.03421829
110	0xbce17bb0	-0.0275248
111	0xbc99d138	-0.018776521
112	0xbd47ab8e	-0.04874759
113	0xbd2b759c	-0.041860208
114	0x3d2b1ee3	0.041777503
115	0xbc82b8d7	-0.01595728
116	0x3c97573a	0.01847421
117	0xbd71445b	-0.05890308
118	0xbd5795ba	-0.052633025
119	0x3cb26317	0.021775765
120	0xbd334892	-0.04377038
121	0xbccdbd94	-0.025114812
122	0xbce01707	-0.02735473
123	0xbd05e2f2	-0.032687135
124	0xbc5946b0	-0.013261482
125	0x3d2d3401	0.042285923
126	0x3c11c328	0.0088966265
127	0xbbe87a9b	-0.007094694
128	0x3cca81c8	0.024720088
129	0xbcef9035	-0.029243568
130	0xbd844c68	-0.06459886
131	0xbd7280ad	-0.059204746
132	0xbc5e1b6a	-0.013556341
133	0x3d4d8ab6	0.050181113
134	0x3c4a8bd6	0.012362441
135	0x3cb57aca	0.022153277
136	0xbcbdb431	-0.023157211
137	0x3c80147d	0.01563477
138	0x3b1120f9	0.0022144897
139	0xbd2786be	-0.040899985
140	0xbd43500b	-0.047683757
141	0x3d151f4d	0.036406804
142	0xba0e0f0d	-0.0005419113
143	0x3bba3655	0.0056827464
144	0xbd588bc9	-0.052867685
145	0x3c75e1f3	0.015007484
146	0x3d4093eb	0.047016066
147	0x3cb03202	0.02150822
148	0x3cf37c5b	0.029722383
149	0xbd5ccfc9	-0.053909097
150	0xbcb255c3	-0.02176941
151	0xbd311db2	-0.04324121
152	0xbd552008	-0.0520325
153	0x3ac38a0c	0.001491846
154	0xbd069bae	-0.03286331
155	0x3bc68453	0.0060582547
156	0xbc1685b0	-0.009187147
157	0xbb1e3101	-0.0024138095
158	0x3c68470b	0.014177094
159	0x3d0da137	0.034577575
160	0xbd7238f1	-0.059136335
161	0xbd5fd3eb	-0.05464546
162	0xbd18f114	-0.037339285
163	0xbd52ff5f	-0.051513072
164	0xbd7a122e	-0.061052494
165	0x3afadbba	0.001913897
166	0xbc97e2e2	-0.018540803
167	0x3d09fa46	0.033685945
168	0x3c86acfa	0.016439904
169	0x3ba5e133	0.005062246
170	0x3ae2846a	0.0017281894
171	0xbc8160f1	-0.015793296
172	0x3d3969db	0.045266967
173	0x3d4efc4f	0.05053359
174	0xbd636e15	-0.055524904
175	0xbc2c6fbf	-0.010524689
176	0xbcc11855	-0.023571173
177	0xbc214edc	-0.009845462
178	0xbb494f4a	-0.0030717426
179	0x3bea3ccb	0.0071483604
180	0xbd479bcd	-0.048732568
181	0xbd83da38	-0.06438106
182	0x3d42e73b	0.0475838
183	0xbd3db434	-0.046314433
184	0xbd20c327	-0.03924861
185	0x3d299a1a	0.04140673
186	0xbd54a746	-0.051917337
187	0xbd308ec1	-0.04310489
188	0xbd37f58b	-0.044911902
189	0xbcf144f3	-0.029451823
190	0xbd8354d9	-0.06412668
191	0xbced1f55	-0.028945604
192	0x3d2ae54e	0.04172259
193	0xbd71f43f	-0.05907082
194	0xbd6274a3	-0.055287015
195	0xbd4ae901	-0.049538616
196	0x3bb63c12	0.00556136
197	0x3d44d357	0.048053112
198	0xbc895812	-0.016765628
199	0x3be94d34	0.007119799
200	0x3d02b1de	0.03190791
201	0xbd76a6d9	-0.060217712
202	0xbacf90e9	-0.0015836033
203	0x3d4a42be	0.049380057
204	0x3d4b63ec	0.04965584
205	0xbaa9d099	-0.0012955844
206	0x3d4d6f2f	0.05015486
207	0xbd4e38e4	-0.050347224
208	0xbcf88289	-0.030335682
209	0xbc6488b9	-0.013948613
210	0x3c621811	0.013799683
211	0xbb591698	-0.003312504
212	0xbd306319	-0.043063257
213	0xbb0a78d1	-0.002112914
214	0xbd859529	-0.06522591
215	0xbd407f96	-0.046996675
216	0xbbedb344	-0.007254036
217	0xbc007a62	-0.007841678
218	0xbbb76d2f	-0.0055977325
219	0x3bbf7680	0.0058429837
220	0xbd7be7c0	-0.06150031
221	0x3be9fd7d	0.007140814
222	0x3ce8e9c0	0.028431773
223	0x3cbb993c	0.022900216
224	0xbd67e5f8	-0.0566158
225	0x3b0378a5	0.0020060923
226	0xbca31d2a	-0.019911367
227	0x3d3b3a98	0.045710176
228	0x3c209609	0.009801396
229	0xb99028ec	-0.0002749631
230	0xbc59337d	-0.013256905
231	0xbbbfdae3	-0.0058549508
232	0xbd0ccbb9	-0.034373973
233	0xbd5fd93e	-0.054650538
234	0x3d2ec167	0.04266491
235	0xbd7b3736	-0.06133195
236	0xbd8934a9	-0.06699497
237	0xbca354a9	-0.01993783
238	0xbd7132d5	-0.058886368
239	0xbcb34833	-0.021885013
240	0xbd796e52	-0.060896225
241	0xbd0a3f79	-0.03375194
242	0x3d260ba8	0.04053846
243	0x3cab277a	0.020892847
244	0x3c946bd8	0.01811783
245	0xbcf2b922	-0.029629294
246	0x3c3142f1	0.010819183
247	0xbd6504a8	-0.055912644
248	0xbd8c834c	-0.068609804
249	0x3a18e282	0.0005832092
250	0x3d0c38f9	0.03423402
251	0xbce3fb1b	-0.027829697
252	0x3c48f275	0.0122648375
253	0xbd0c85e5	-0.03430738
254	0x3d190b1e	0.037364118
255	0x3c721ce2	0.014777394

encoder.3.bias f4 [64]
0	0xbc5aeb8d	-0.013361824
1	0xbbbb802b	-0.005722066
2	0x3e8c5505	0.27408615
3	0x3f06f127	0.5271172
4	0x3e36db72	0.17857149
5	0x3ed5d65f	0.41765115
6	0x3ed4df54	0.41576636
7	0x3e0153e2	0.12629655
8	0x3e8ef1c9	0.27918842
9	0x3ece5f84	0.40307248
10	0x3ec82f9e	0.3909883
11	0x3f018d3f	0.5060615
12	0x3f06343b	0.5242345
13	0x3eb669db	0.35627636
14	0x3ed5d7bd	0.41766158
15	0x3e292942	0.16519645
16	0x3ee8dfac	0.45483148
17	0x3e529a9c	0.20566791
18	0x3e1fc7ef	0.15603612
19	0xbd5723e8	-0.052524477
20	0x3f4c5869	0.79822403
21	0x3ec21485	0.3790628
22	0x3e90c904	0.28278363
23	0x3d7a77ac	0.061149284
24	0x3f2921c5	0.66067153
25	0x3ea09de7	0.3137047
26	0x3e3340e6	0.17505226
27	0x3d9d0895	0.076676525
28	0x3eb37771	0.35052064
29	0x3ecd2e5d	0.40074435
30	0x3f2cc4b2	0.67487633
31	0x3eb738d3	0.3578554
32	0x3eece9e9	0.4627221
33	0x3e8da094	0.27661574
34	0x3f0183dc	0.50591826
35	0x3ed8ae87	0.42320654
36	0x3f0ae131	0.54249865
37	0x3e9bc73e	0.30425447
38	0x3e5cf8a7	0.21579228
39	0x3ec28387	0.37990972
40	0x3e88508b	0.2662395
41	0x3e75f3ed	0.24018832
42	0x3e84b540	0.25919533
43	0x3e9d83b7	0.30764553
44	0x3e1a455e	0.15065524
45	0x3ecf40bf	0.40479085
46	0x3eebef96	0.46081227
47	0x3edf5045	0.43615928
48	0x3e8fdcc5	0.2809812
49	0x3ecfdbd4	0.40597403
50	0x3dff4e98	0.124661624
51	0x3ee5905b	0.44836697
52	0xbb9df506	-0.004820469
53	0x3dd16afd	0.102254845
54	0xbd81c8f0	-0.06337154
55	0x3f0b3815	0.5438245
56	0x3eeb32ab	0.45937094
57	0x3efa8575	0.48929945
58	0x3edecf12	0.43517357
59	0x3d8cd3fc	0.0687637
60	0x3e8ddc1a	0.27706987
61	0x3ed5852f	0.41703174
62	0x3eb32106	0.34986132
63	0x3eaf44af	0.3423209

decoder.0.weight f4 [64, 32, 2, 2]
0	0xbda1dc3f	-0.07903337
1	0xbd58403d	-0.052795637
2	0xbc91fc2f	-0.017820446
3	0x3d9d1a77	0.076710634
4	0xbd6c4a26	-0.0576879
5	0xbc8a3020	-0.01686865
6	0xbd51b1b7	-0.051194873
7	0xbd892aa4	-0.06697586
8	0x3c0a111b	0.00842693
9	0xbd9b74fd	-0.07590673
10	0x3b34c9a2	0.0027586003
11	0xba9f8c20	-0.0012172498
12	0x3da3fb54	0.080069214
13	0x3c06f229	0.008236446
14	0xbd8bef71	-0.06832779
15	0xbda9c56f	-0.082896106
16	0xbd3b7176	-0.0457625
17	0x3d99e073	0.075135134
18	0xbd72c4bb	-0.059269648
19	0xbca776a3	-0.020442313
20	0x3d4ef98c	0.050530955
21	0x3dabb7c7	0.08384662
22	0x3baf8a44	0.0053570587
23	0x3d89f43d	0.06736038
24	0x397c6786	0.00024071158
25	0x3d66e14c	0.056367204
26	0xbd67776a	-0.056510366
27	0xbd4eb9c4	-0.05047013
28	0xbc759a9f	-0.014990478
29	0xbccf8919	-0.025333928
30	0xbdb61269	-0.0889023
31	0x3dae9c94	0.08525959
32	0xbd0aeb74	-0.03391595
33	0xbd97e332	-0.07416381
34	0xbc89be73	-0.016814446
35	0xbd728f0f	-0.059218463
36	0x3d92832a	0.07153924
37	0xbc6fbfa4	-0.014633093
38	0x3d3cd917	0.04610547
39	0x3d7730a9	0.06034914
40	0x3d39f34a	0.045398034
41	0x3d7130a2	0.05888427
42	0xbd8e1b46	-0.06938796
43	0xbd697d45	-0.057004232
44	0xbd576be3	-0.052593123
45	0x3c3ef668	0.0116554275
46	0x3d91452b	0.07093271
47	0xbd745d55	-0.05965932
48	0x3c82da3f	0.015973208
49	0xbd507746	-0.050894998
50	0x3d74c69e	0.05975973
51	0x3d6f79f0	0.058465898
52	0xbd439a71	-0.04775471
53	0x3d3fd76e	0.04683631
54	0xbdc0ac0a	-0.09407814
55	0xbd94bea5	-0.07262925
56	0xbc7edc44	-0.015555445
57	0x3da74037	0.08166545
58	0x3c72743e	0.014798222
59	0xbd8294da	-0.063760474
60	0x3cdc4cb3	0.026892042
61	0xba5711a5	-0.00082042284
62	0x3d48ae88	0.04899457
63	0x3d4e54e7	0.050373938
64	0xbca1d5ac	-0.019755207
65	0xbc40a8fd	-0.01175904
66	0xbd22b77d	-0.03972577
67	0xbc8f3b52	-0.01748434
68	0x3d3de85e	0.04636418
69	0xbc80fecd	-0.015746498
70	0x3ca252c4	0.019814856
71	0xbd75fae2	-0.060053714
72	0x3cceef59	0.025260614
73	0xb9b333ac	-0.0003418004
74	0x3d7c1389	0.061542068
75	0x3d00f575	0.031484086
76	0x3d73f238	0.05955717
77	0xbcab6ce3	-0.020925945
78	0xbcffd40d	-0.031229043
79	0x3d3994f2	0.04530806
80	0x3d88c5f4	0.066783816
81	0x3c8f50c1	0.017494561
82	0xbd54735f	-0.05186784
83	0x3d855a2c	0.065113395
84	0x3da3bfb7	0.07995551
85	0x3d13da1a	0.03609667
86	0xbd0bae88	-0.034101993
87	0x3c97b400	0.018518448
88	0x3d9dc2bb	0.077031575
89	0x3cb756ed	0.022380317
90	0xbccca894	-0.024982728
91	0x3c8afc72	0.016966078
92	0xbc5fc327	-0.013657368
93	0x3cfaa3e0	0.03059572
94	0xbcc89fa2	-0.024490181
95	0x3a0318a8	0.00050009275
96	0x3d589475	0.052875955
97	0x3ce0529c	0.027383141
98	0xbd84a225	-0.06476239
99	0xbccca408	-0.02498056
100	0xbd2c5d86	-0.04208138
101	0x3dab29c3	0.08357575
102	0x3c94b2ab	0.018151602
103	0xbc9d37e7	-0.019191695
104	0xbd835820	-0.06413293
105	0xbc02bd73	-0.0079797385
106	0x3d453615	0.04814728
107	0xbd5b3a15	-0.05352219
108	0x3b8731dd	0.004125817
109	0x3d19f147	0.037583616
110	0xbd74ed3a	-0.05979655
111	0x3d40efb7	0.04710361
112	0xbd5cab1f	-0.05387413
113	0xbd9c26d8	-0.07624596
114	0x3db80b89	0.08986575
115	0xbd24a576	-0.04019686
116	0x3c3384c2	0.010956945
117	0x3d85babb	0.06529757
118	0x3d941b60	0.07231784
119	0x3c50c7c1	0.012742938
120	0xbc176038	-0.009239249
121	0x3d385269	0.045000467
122	0x3d46c868	0.048530966
123	0x3d771fa4	0.06033291
124	0x3d0fb5a6	0.035085343
125	0x3bd81af6	0.006595011
126	0x3cbd2eac	0.023093544
127	0x3b9a3f68	0.0047072656
128	0xbc477eed	-0.012176258
129	0xbd1efc1b	-0.038814645
130	0x3da9d698	0.08292884
131	0xbd279a01	-0.040918354
132	0xbd3e9c59	-0.046535823
133	0x3d8128bc	0.063065976
134	0xbcd7417c	-0.026276343
135	0xbd8a3ce0	-0.06749892
136	0xbd5403d8	-0.05176148
137	0x3d3fbecf	0.04681283
138	0xbd447342	-0.04796148
139	0xbb859657	-0.00407676
140	0xbcbbd610	-0.022929221
141	0x3d927e77	0.071530275
142	0x3d824287	0.06360345
143	0x3d237752	0.039908715
144	0x3c0a4bd6	0.008440932
145	0x3d3f471a	0.046698667
146	0xbd691f52	-0.056914635
147	0x3d8ff6a4	0.07029465
148	0x3c93ccb4	0.018041946
149	0x3d683091	0.05668694
150	0x3d8e28c7	0.069413714
151	0x3d3479ec	0.044061586
152	0xbd4c084f	-0.04981261
153	0x3d9dd7f5	0.07707206
154	0x3d931220	0.071811914
155	0x3d9f52b5	0.07779447
156	0xbd86cf82	-0.06582548
157	0x3d03e908	0.032204658
158	0x3d6282d7	0.05530056
159	0xbd51316f	-0.051072534
160	0xbd98b88d	-0.07457075
161	0x3db9fd76	0.09081547
162	0xbd0ad3ae	-0.03389328
163	0x3db2fa77	0.08739179
164	0xbc85c090	-0.016327173
165	0xbdba4e89	-0.09097011
166	0xbca1ab98	-0.019735143
167	0xbceadec2	-0.028670672
168	0xbc079bec	-0.008276921
169	0x3d4fbba7	0.05071607
170	0x3d6dfc21	0.058101777
171	0xb91a4984	-0.00014713971
172	0xbdc04115	-0.093874134
173	0x3d4d12d8	0.0500668
174	0xbce0d338	-0.027444467
175	0x3c5f17b1	0.013616488
176	0x3d0e0a61	0.034677867
177	0x3c597d98	0.013274573
178	0x3d2928a8	0.04129854
179	0xbd5c79f2	-0.053827234
180	0xbd459dfe	-0.048246376
181	0xbd076a7a	-0.03306053
182	0x3cb72803	0.022357946
183	0x3d626367	0.05527058
184	0xbd65f859	-0.056145046
185	0xbd806c68	-0.06270677
186	0xbd5450e6	-0.051834963
187	0xbd7c8e75	-0.061659295
188	0xbd96c644	-0.07362035
189	0x3cb7de00	0.022444725
190	0x3d07d96c	0.033166334
191	0x3baa42e5	0.0051959627
192	0x3db6dd1c	0.08928892
193	0x3cbaf7ee	0.0228233
194	0x3c3957a1	0.011312396
195	0x3c7a61c7	0.015282101
196	0x3cf785fb	0.030215254
197	0x3c12e133	0.0089648245
198	0x3d5c058f	0.05371624
199	0xbd776c6b	-0.06040613
200	0xbbb903a1	-0.0056461846
201	0x3d82f22d	0.063938476
202	0x3da2b176	0.07944004
203	0x3dbf65d2	0.093455926
204	0x3cf8e816	0.030384105
205	0xbd08afd7	-0.03337082
206	0x3d7ca96c	0.06168501
207	0x3d8b51b9	0.06802697
208	0xbdbdda82	-0.09270193
209	0xbd4fe012	-0.0507508
210	0x3c734a10	0.014849201
211	0x3ceae52b	0.028673729
212	0xbd22b477	-0.039722886
213	0xbd69f11c	-0.057114705
214	0x3d91b7d0	0.071151376
215	0xbbc7698b	-0.0060855797
216	0x3c96861d	0.018374497
217	0x3d579cd0	0.052639782
218	0x3db3b9a2	0.08775641
219	0x3dc228b1	0.094804175
220	0x3cd51a15	0.026013413
221	0x3bdea386	0.006794396
222	0xbca4e926	-0.020130705
223	0x3d650dec	0.05592148
224	0xbd8fe38d	-0.07025824
225	0x3adfaf92	0.0017065874
226	0x3d6573ae	0.056018524
227	0xbd84e3f4	-0.06488791
228	0xbd90d97b	-0.07072731
229	0x3cebe9c1	0.028797986
230	0xbb58f0f2	-0.00331026
231	0xbc25c396	-0.010117432
232	0x3d63f5e4	0.05565442
233	0x3d8246dc	0.063611716
234	0xbd8ec048	-0.069702685
235	0xbd256409	-0.040378604
236	0xbd0e0cd5	-0.034680206
237	0x3d9aa4dc	0.07550976
238	0xbd5e5651	-0.054281536
239	0x3cafa93c	0.021443002
240	0x3b66758f	0.0035165285
241	0xbd15626c	-0.036470816
242	0xbd9a5ab5	-0.07536832
243	0xbd94905b	-0.07254096
244	0xbdbb002d	-0.09130893
245	0x3d9a1dd3	0.0752522
246	0x3c51c10a	0.012802372
247	0xbdb142cd	-0.08655319
248	0x3db23a14	0.08702484
249	0xbc780aa7	-0.0151392585
250	0xbd100af1	-0.035166685
251	0x3c2dd4b6	0.010609796
252	0xbc8afd24	-0.01696641
253	0x3d146573	0.036229562
254	0xbc87f634	-0.016596891
255	0x3db74caf	0.08950173

decoder.0.bias f4 [32]
0	0x3daf1452	0.08548798
1	0xbc5cf8cc	-0.013487052
2	0x3e79aa72	0.24381426
3	0xbdcc7d6f	-0.09984862
4	0xbe8c88f6	-0.27448243
5	0xbe5b7389	-0.21430792
6	0xbe5aed19	-0.21379508
7	0xbc9d5111	-0.019203695
8	0xbe0311b0	-0.12799716
9	0xbda0b171	-0.07846344
10	0xbe2bb270	-0.16767287
11	0xbdaa5974	-0.08317843
12	0xbdc0f3f1	-0.09421528
13	0x380594ac	3.1848132e-05
14	0xbe30b41e	-0.17256209
15	0xbd1bf4af	-0.038075145
16	0xbe3f9b78	-0.1871165
17	0x3cbcc687	0.023043884
18	0x3cc69713	0.02424196
19	0x3e3caab6	0.18424496
20	0x3d2a77e3	0.04161824
21	0x3dc05576	0.093913004
22	0x3da4aae8	0.0804041
23	0xbe07803a	-0.13232508
24	0x3db4a4cf	0.08820497
25	0x3d48ede1	0.049054984
26	0xbda38c06	-0.07985692
27	0x3d53ee65	0.051741023
28	0xbd715291	-0.058916632
29	0x3e0d3db7	0.13793074
30	0x3dbd4e30	0.09243429
31	0xbdcd05d3	-0.100108765

decoder.2.weight f4 [32, 3, 2, 2]
0	0xbd8258e1	-0.063646086
1	0xbec577a1	-0.38567832
2	0xbe919e51	-0.28441098
3	0xbd2cf30d	-0.04222398
4	0xbdd4f19f	-0.10397648
5	0xbee44cd5	-0.44589868
6	0xbea2324e	-0.31679004
7	0x3d03b9dd	0.032159675
8	0xbde9d08b	-0.114167295
9	0xbed6fe5c	-0.41990936
10	0xbe6c9c49	-0.23106493
11	0x3e5d43ab	0.21607845
12	0xbe6a8dea	-0.22905698
13	0xbcfcfd92	-0.03088263
14	0xbe47841c	-0.1948399
15	0xbc4bea2e	-0.0124459695
16	0xbed04692	-0.4067884
17	0xbeadf1c0	-0.33973503
18	0xbec34452	-0.38138062
19	0xbe9860df	-0.29761407
20	0xbed504bd	-0.41605178
21	0xbece8c8b	-0.403416
22	0xbebfb59f	-0.37443253
23	0xbead8458	-0.33890033
24	0xbe72c3cc	-0.23707503
25	0xbd818b5c	-0.06325409
26	0x3d4a16e9	0.049338255
27	0xbbdbc956	-0.0067073507
28	0xbe204061	-0.15649559
29	0xbea9ede6	-0.33189315
30	0xbe7a5fe7	-0.24450646
31	0xbee25464	-0.4420501
32	0x3e789d19	0.24278678
33	0x3e5cbc3f	0.21556185
34	0x3e01fe74	0.12694722
35	0x3b27b45b	0.0025589678
36	0x3ee8fd66	0.45505828
37	0x3f0a30f5	0.5398095
38	0x3e4e07d1	0.20120169
39	0x3e82c89d	0.2554368
40	0x3eb567c4	0.3543073
41	0x3ebf6003	0.3737794
42	0x3e775e7d	0.24157138
43	0x3e57ea15	0.21085389
44	0x3ea0f2fd	0.31435385
45	0x3ea14a37	0.31501934
46	0x3e427270	0.18988967
47	0x3e2fff53	0.17187242
48	0xbeadd148	-0.3394873
49	0xbedd86a6	-0.4326679
50	0xbe46850e	-0.19386694
51	0xbe63e03a	-0.22253504
52	0x3e555205	0.20832069
53	0x3d49f465	0.04930534
54	0x3e57bf7a	0.21069136
55	0x3e42031e	0.18946502
56	0x3e4efc06	0.20213327
57	0x3da63a31	0.08116568
58	0x3e802b6d	0.2503313
59	0x3e7707a9	0.24124016
60	0x3e82cf63	0.25548849
61	0x3f0b9d54	0.5453694
62	0xbbf4d258	-0.007471364
63	0x3e094283	0.13404278
64	0x3e47870c	0.1948511
65	0x3f0fc48c	0.5615928
66	0xbe21d1bb	-0.15802662
67	0xbded3a8a	-0.11583431
68	0x3de6b292	0.11264528
69	0x3ef1dbdc	0.47238052
70	0xbe8cafc5	-0.27477852
71	0xbe861a74	-0.26192057
72	0x3e048bcc	0.12943953
73	0x3ec2bf41	0.3803654
74	0x3ed05ea4	0.40697205
75	0x3ef5eac0	0.48030663
76	0x3e045ffd	0.12927242
77	0x3eea9039	0.45813158
78	0x3f113578	0.5672221
79	0x3f2cc245	0.6748393
80	0x3e75c0eb	0.23999374
81	0x3efea098	0.49731898
82	0x3f336c46	0.7008709
83	0x3f32f47e	0.69904315
84	0xbdbe86d6	-0.09303062
85	0xbe9eb109	-0.30994442
86	0xbe63cc0e	-0.2224581
87	0xbed3fe87	-0.41405126
88	0xbe69bb9b	-0.22825472
89	0xbd7058c8	-0.05867842
90	0xbeedaf8b	-0.4642299
91	0xbec157d1	-0.3776231
92	0xbd98ebfb	-0.07466885
93	0x3d7d655e	0.06186425
94	0xbee95c75	-0.45578352
95	0xbea47a99	-0.32124785
96	0x3e35af09	0.17742552
97	0xbe6975f6	-0.22798905
98	0xbe59c481	-0.21266367
99	0xbec34e4f	-0.38145682
100	0x3e23ee97	0.16008984
101	0xbebcc16d	-0.36866322
102	0x3c67a39d	0.01413813
103	0xbebaccd6	-0.36484402
104	0xbc34c101	-0.011032344
105	0xbef612b5	-0.48061147
106	0xbd6b5c4e	-0.057461075
107	0xbec56de4	-0.38560402
108	0x3ee7b83f	0.45257756
109	0xbf09ff30	-0.5390501
110	0x3f06d2d1	0.5266543
111	0xbeb7308f	-0.35779235
112	0x3f04f309	0.5193334
113	0xbf4bceaa	-0.7961222
114	0x3f2428a7	0.6412453
115	0xbf0f730b	-0.56034917
116	0x3f11dfd1	0.5698214
117	0xbf41e158	-0.7573447
118	0x3f4172f2	0.7556602
119	0xbf09b079	-0.537849
120	0x3dbe2fdd	0.09286473
121	0xbd0173b4	-0.031604484
122	0x3ea9d3ea	0.3316949
123	0x3e99045a	0.29886132
124	0x3e77afcb	0.24188153
125	0x3e8b8198	0.2724731
126	0x3ef04b7e	0.46932596
127	0x3f1648d1	0.5870486
128	0x3e2e6b0c	0.17033023
129	0x3e790bd5	0.2432092
130	0x3ef17245	0.47157493
131	0x3f1c7c84	0.61127496
132	0xbe3707de	-0.17874095
133	0xbdae3dd4	-0.085078865
134	0x3ec44f3c	0.383417
135	0x3f2a1068	0.66431284
136	0xbe651343	-0.22370629
137	0xbdafc31c	-0.08582136
138	0x3e5dd5fe	0.21663663
139	0x3f1912ea	0.59794486
140	0xbec4f45c	-0.3846768
141	0xbdeccd8d	-0.11562643
142	0x3d4b228d	0.049593497
143	0x3f16b863	0.588751
144	0x3e913721	0.28362373
145	0x3e504312	0.20338085
146	0xbea5ebb4	-0.3240639
147	0xbee6ebcd	-0.45101777
148	0x3e77cb96	0.24198756
149	0x3d7575aa	0.059926666
150	0xbdeeafb8	-0.116546094
151	0xbe6da7cb	-0.23208539
152	0xbd3ebf12	-0.046568938
153	0xbe0c1223	-0.13678794
154	0xbcb19eb5	-0.021682123
155	0xbce3badc	-0.027799062
156	0x3efc9478	0.49332023
157	0x3e9551c6	0.2916395
158	0xbe5ae43e	-0.2137613
159	0xbdd26362	-0.10272862
160	0x3f37ef60	0.7184963
161	0x3eedde6c	0.46458757
162	0xbe691552	-0.2276204
163	0x3d139109	0.03602699
164	0x3f036416	0.51324594
165	0x3e9b05ba	0.30277807
166	0xbef9582f	-0.4870009
167	0xbe24e417	-0.16102634
168	0x3dcd63ff	0.10028838
169	0xbe70096a	-0.23441091
170	0x3df310b2	0.11868419
171	0xbdaa7d6d	-0.08324704
172	0x3e17641d	0.14784284
173	0xbecae674	-0.39628947
174	0x3eb24987	0.34821722
175	0xbd6d65b3	-0.057958316
176	0xbd8a7ae3	-0.0676172
177	0xbf25b36b	-0.64726895
178	0x3e8c06b1	0.27348855
179	0xbe5281c3	-0.20557313
180	0xbd70f5eb	-0.058828276
181	0x3d730237	0.059328284
182	0xbe127f4e	-0.14306375
183	0x3d2361d6	0.039888225
184	0xbe35de23	-0.1776052
185	0xbdd45b01	-0.1036892
186	0xbeb10da7	-0.34580728
187	0xbeb94e80	-0.36192703
188	0xbe81d240	-0.2535572
189	0xbe9caf02	-0.3060227
190	0xbeee5637	-0.46550152
191	0xbf247076	-0.642341
192	0xbe3606f5	-0.17776091
193	0xbe1f4e6b	-0.15557258
194	0xbe50c6cb	-0.20388333
195	0xbe4c8ac1	-0.19974805
196	0xbf026d8c	-0.50948405
197	0xbed90a11	-0.42390493
198	0xbf0289c7	-0.5099148
199	0xbf223ce5	-0.6337417
200	0xbf114f5c	-0.5676172
201	0xbeed4266	-0.4633972
202	0xbf02e505	-0.51130706
203	0xbf2b0244	-0.6680033
204	0xbec51787	-0.38494512
205	0xb9ac192e	-0.00032825157
206	0xbd8c83bf	-0.06861066
207	0x3e82692c	0.25470865
208	0xbf16d459	-0.58917767
209	0xbd6f9138	-0.0584881
210	0xbe92c66e	-0.28667015
211	0x3e242d32	0.16032866
212	0xbf40974f	-0.7523088
213	0xbe874a8f	-0.2642407
214	0xbf05a804	-0.52209496
215	0xbdf5585f	-0.11979746
216	0x3eb3b352	0.35097748
217	0xbe088f32	-0.13335875
218	0x3d34334c	0.043994233
219	0xbe6f53fc	-0.23371881
220	0xbe14594e	-0.14487192
221	0xbeaec9f7	-0.34138462
222	0xbe360a7b	-0.17777435
223	0x37d92341	2.5884832e-05
224	0xbc55388f	-0.013013973
225	0xbe1ab95a	-0.15109769
226	0xbd3e9bad	-0.046535183
227	0x3e85d3fa	0.26138288
228	0x3e718180	0.23584557
229	0x3f1c44ea	0.61042655
230	0x3d8343de	0.06409429
231	0x3ed625a8	0.41825604
232	0x3dc4cb40	0.09609079
233	0x3e65ba96	0.22434458
234	0xbdfb097b	-0.12257668
235	0xbce18986	-0.027531397
236	0x3e4b81c8	0.19873726
237	0x3e54235c	0.20716614
238	0xbc3ab9c6	-0.011396831
239	0xbd057acd	-0.032587815
240	0x3e9c252b	0.30497107
241	0xbd9564ce	-0.072946176
242	0x3e48e273	0.19617634
243	0xbc700b13	-0.014651078
244	0x3e397947	0.1811267
245	0x3d7f3e75	0.062315423
246	0x3e5a9b54	0.21348315
247	0x3df3d8b6	0.11906569
248	0xbdd54613	-0.10413756
249	0xbe384047	-0.1799327
250	0x3d8b9fda	0.06817599
251	0x3e8d6f5d	0.27624026
252	0x3d45cabd	0.04828905
253	0x3e83c8f5	0.25739256
254	0x3ee8c8c9	0.45465687
255	0x3f173c87	0.5907673

decoder.2.bias f4 [3]
0	0xbdb81820	-0.089889765
1	0xbe2bd505	-0.16780479
2	0xbe059943	-0.13046746
